cnn_based/model.pt (torch, 2711 bytes, 6 tensors)

rnn.weight_ih_l0 f4 [10, 1]
0.05788917 -0.041325424 0.023177003 0.12320848 -0.070425816 0.38333377 -0.005176289 -0.3050886
-0.2783548 -0.64502245
00000000: 321d 6d3d d944 29bd b3dd bd3c ba54 fc3d
00000010: 693b 90bd 5344 c43e dc9d a9bb 9334 9cbe
00000020: 8584 8ebe 3120 25bf

rnn.weight_hh_l0 f4 [10, 10]
-0.08330238 0.15629002 -0.10400879 -0.02606812 -0.064876944 0.36241427 -0.35298744 -0.3769774
-0.21446851 -0.42522985 0.21124715 -0.27937955 -0.2398731 0.34283152 0.17638226 -0.26009774
-0.17566024 0.17941232 0.6678888 -0.31165576 -0.08509851 -0.40804335 -0.019786699 0.052516446
-0.03218794 -0.34366137 -0.17672375 0.16007419 -0.17643441 0.044903655 0.47097206 -0.17703688
-0.11805217 0.02740115 0.19898674 0.2128083 0.057785578 -0.48775256 -0.0185268 -0.09298915
-0.09927027 -0.14442702 0.04616627 -0.23568356 -0.25983194 -0.0044167936 0.103349835 -0.14746119
-0.14199373 -0.22041348 0.31577158 0.4625703 -0.25951514 0.10436554 -0.23119576 0.05165004
-0.053328276 -0.084950946 -0.43860686 -0.17253147 0.087823845 0.06523952 -0.185069 -0.11844466
-0.03473122 -0.06312829 0.37148768 0.40042475 0.7666572 -0.34088302 -0.15125261 0.09735277
-0.08863056 -0.0728152 -0.018897632 0.25220394 0.5323384 0.51425195 0.44018126 -0.5549077
-0.15515378 0.2529592 -0.16151659 -0.28373328 0.19912575 -0.6341719 0.0040184082 -0.058215488
0.596219 0.47012183 0.057043508 0.010815962 0.22291277 0.024287727 0.2337396 -0.30685034
-0.3703199 0.19094954 -0.6196723 0.55603814
00000000: 709a aabd 7e0a 203e 8f02 d5bd cf8c d5bc
00000010: 34de 84bd 5d8e b93e c5ba b4be 2f03 c1be
00000020: a29d 5bbe bab7 d9be 2c51 583e d60a 8fbe
00000030: 4ba1 75be 9d87 af3e 8d9d 343e 882b 85be
00000040: 47e0 33be ddb7 373e c3fa 2a3f 5891 9fbe
00000050: 2148 aebd 0feb d0be b717 a2bc 7c1b 573d
00000060: 80d7 03bd 62f4 afbe 12f7 34be 7dea 233e
00000070: 39ab 34be e5ec 373d 4023 f13e 2849 35be
00000080: 56c5 f1bd 6078 e03c 2ec3 4b3e 6bea 593e
00000090: 92b0 6c3d b4ba f9be 84c5 97bc 1871 bebd
000000a0: 364e cbbd ade4 13be d818 3d3d 0857 71be
000000b0: b108 85be c0ba 90bb 14a9 d33d 1100 17be
000000c0: ce66 11be 12b4 61be d0ac a13e 04d6 ec3e
000000d0: 2bdf 84be 9abd d53d 95be 6cbe fe8e 533d
000000e0: c06e 5abd c3fa adbd 1491 e0be 17ac 30be
000000f0: fddc b33d 4c9c 853d ba82 3dbe 1d93 f2bd
00000100: 5342 0ebd 6849 81bd a233 be3e 7904 cd3e
00000110: a543 443f 3888 aebe f7e1 1abe e460 c73d
00000120: f083 b5bd 2320 95bd 35cf 9abc e020 813e
00000130: 5447 083f 04a6 033f 705f e13e 6e0e 0ebf
00000140: a2e0 1ebe de83 813e 9b64 25be 7d45 91be
00000150: 9fe7 4b3e 1759 22bf daac 833b 5d73 6ebd
00000160: cfa1 183f cfb3 f03e 74a6 693d 6f35 313c
00000170: 3f43 643e 0ef7 c63c 6f59 6f3e 7d1b 9dbe
00000180: 929a bdbe 4788 433e d8a2 1ebf 8458 0e3f

rnn.bias_ih_l0 f4 [10]
0.13451764 0.16955918 0.15317646 0.20058002 -0.21957755 0.45967445 -0.15492924 0.26162276
-0.16298576 0.041936968
00000000: febe 093e eca0 2d3e 4ada 1c3e d964 4d3e
00000010: f0d8 60be 735a eb3e c5a5 1ebe 6bf3 853e
00000020: bde5 26be 19c6 2b3d

rnn.bias_hh_l0 f4 [10]
0.024127012 0.16378035 -0.36219367 0.028735949 0.068053484 0.4089 0.1846158 0.06704406
0.008790002 0.14849253
00000000: 03a6 c53c 09b6 273e 7371 b9be a767 eb3c
00000010: a05f 8b3d 575b d13e ed0b 3d3e 654e 893d
00000020: f103 103c 6d0e 183e

fc.weight f4 [5, 10]
-0.31578934 -0.09758167 0.19075987 -0.3419158 0.13784692 -0.1516126 0.25731143 0.23506352
-0.052884135 -0.5322433 0.22720206 -0.32135382 0.084843956 0.21479543 -0.10291721 0.17321305
-0.6326788 -0.7996873 -0.99956644 0.9714689 0.24524231 0.11987745 -0.14590162 0.29709157
-0.21310782 0.01068152 0.11645311 0.16298707 0.012542201 -0.09693421 -0.3365367 -0.07300497
0.19481489 -0.38806525 0.22716305 0.104948476 0.22329554 0.21977377 -0.3734255 -0.011522987
0.10449331 -0.03268004 -0.060127925 -0.12869918 0.22338882 -0.069616675 0.3314695 0.269462
0.54284185 -0.090439774
00000000: 24af a1be e6d8 c7bd 8e56 433e 960f afbe
00000010: be27 0d3e 5540 1bbe 53be 833e 7eb4 703e
00000020: 099d 58bd 1941 08bf a8a7 683e 7d88 a4be
00000030: abc2 ad3d 55f3 5b3e 42c6 d2bd c35e 313e
00000040: 3df7 21bf 4fb8 4cbf 96e3 7fbf 30b2 783f
00000050: cd20 7b3e 4f82 f53d 3c67 15be 631c 983e
00000060: f038 5abe 8b01 2f3c f87e ee3d 15e6 263e
00000070: ce7d 4d3c 7185 c6bd 8a4e acbe a183 95bd
00000080: 8e7d 473e 7db0 c6be 6e9d 683e 3aef d63d
00000090: 96a7 643e 600c 613e a131 bfbe e9ca 3cbc
000000a0: 9700 d63d 81db 05bd b348 76bd b8c9 03be
000000b0: 0ac0 643e 3093 8ebd 5fb6 a93e ecf6 893e
000000c0: aff7 0a3f 7d38 b9bd

fc.bias f4 [5]
0.28421158 0.6281115 0.18955792 0.10186462 -0.15526672
00000000: 2e84 913e eacb 203f 791b 423e 669e d03d
00000010: 3dfe 1ebe
