rnn_based/model.pt (torch, 2711 bytes, 6 tensors)

rnn.weight_ih_l0 f4 [10, 1]
00000000: 3e84 843d a128 e83e 36ab ea3e e821 7fbf
00000010: dc8f efbe 9cc3 b73e b54a 3e3e e665 29bf
00000020: 7ccd b5be 8b56 253f
0.06470536 0.45343497 0.4583375 -0.9966111 -0.46789443 0.35891426 0.18583186 -0.6617111
-0.35508335 0.6458518

rnn.weight_hh_l0 f4 [10, 10]
00000000: 7905 183f 1234 87bd d88c 9cbe 4199 eb3b
00000010: 9d37 00bf 2ceb 2f3e 5fee 1dbf f3f3 6abf
00000020: 0401 f0be cb4e 383e 6f59 6a3f a61c 9eba
00000030: 0157 a63e 8533 4cbe 9aae 90be 6154 6abe
00000040: a7f5 bdbd f6d0 813d a6fa cabe 8e42 843d
00000050: fa02 f2bc ff02 c03e 7dc5 943c 5e9e 5c3e
00000060: f04f 1b3e ba8f 87be fdae 74be 3cff 983e
00000070: c874 39be 9a53 163e a90b 833f a261 38bd
00000080: 468b 853e 9e65 1c3d f242 c1bd 280e 94be
00000090: abf7 8d3e 7778 8c3e 4478 663e 62c9 9abe
000000a0: 57f6 0a3f 6eb2 d43e 204f 3bbe 675f 583e
000000b0: 1491 013f 24c4 1dbf c0cc 5f3d ec3b 73be
000000c0: a6f6 a13e 0a87 203f a534 61bf cc29 b6be
000000d0: b63b 623e d308 21be 73d6 37be 37d9 963d
000000e0: 3f2e e73e 9391 d93d 2b64 adbe 1f5b 49bd
000000f0: b414 22bf f0b8 06bf 3635 46be 9d43 5f3e
00000100: 97be 1dbe 154a ac3e 952e f23e 8142 bebe
00000110: cf26 22be 5d88 16bf b413 4cbf 3c02 3abd
00000120: 54d0 c23e 9e01 ce3e f3f7 843e 307c b73e
00000130: 4e2b 73bf 1c4d 1e3f c417 24be a7e1 a03e
00000140: d512 98be a263 983e b712 a93d 4fd5 2b3e
00000150: f722 103e b6b2 f33d 612b c3be 513f 803d
00000160: 81ad 24be 33cd b9bc 8fd6 323e f531 e13e
00000170: 0da6 d83d 4350 23bf 0fd7 39be 0295 493d
00000180: 65c6 94be 3487 8f3e 3f2f 00be 0220 af3c
0.5938335 -0.066017285 -0.30576205 0.0071899 -0.5008486 0.17179555 -0.6169185 -0.91778487
-0.46875775 0.17998807 0.91542715 -0.0012062981 0.32488254 -0.19941528 -0.2825821 -0.2288375
-0.0927537 0.06338684 -0.39644355 0.06458007 -0.029542435 0.37502286 0.018160576 0.21544787
0.15167212 -0.26476842 -0.23894878 0.29882228 -0.18110955 0.14680329 1.0237933 -0.045014985
0.2608282 0.038182847 -0.09436597 -0.2891705 0.27728018 0.27435657 0.22506815 -0.30231768
0.54282135 0.4154238 -0.18291903 0.21130143 0.50611997 -0.6162741 0.054638624 -0.23753327
0.3163349 0.62706053 -0.87970954 -0.35578763 0.2209309 -0.15726022 -0.179529 0.07365649
0.4515247 0.10623469 -0.33865485 -0.049159165 -0.6331284 -0.5262594 -0.19356236 0.21803136
-0.15404736 0.3365027 0.47301164 -0.37160113 -0.15835117 -0.58801824 -0.79717565 -0.045412287
0.38049567 0.4023561 0.2597042 0.35836935 -0.9498795 0.6183641 -0.16024691 0.3142216
-0.29701868 0.29763514 0.08255523 0.1678059 0.14075838 0.11899321 -0.38119033 0.06262077
-0.16081811 -0.022680854 0.1746466 0.43983427 0.10578547 -0.63794345 -0.18148445 0.04921437
-0.29057613 0.2803284 -0.12518023 0.021377567

rnn.bias_ih_l0 f4 [10]
00000000: 0858 163d 08c4 963d 4774 863e 14d2 5e3e
00000010: 2464 a63c 4b3a 8c3e 7145 bc3e cc22 8cbd
00000020: 5d1d b33e 1eb6 ad3e
0.036705047 0.07361609 0.26260588 0.21759826 0.020311423 0.27388224 0.3677173 -0.068425745
0.3498334 0.33928007

rnn.bias_hh_l0 f4 [10]
00000000: d67c a23e 6926 e33b 922d 47be ae2f 713e
00000010: 5626 ca3e 7ef0 a93e f78b 8d3e 2f2c 50be
00000020: 1656 a33e bdf7 aebd
0.31735867 0.006932069 -0.19450977 0.23553345 0.39482373 0.33191293 0.27645847 -0.20329355
0.31901616 -0.08543346

fc.weight f4 [5, 10]
00000000: fb16 7a3f 1a6a ef3d 2686 903e 4410 2e3e
00000010: 96d5 59bf 72a5 263d d572 cf3e 13aa 3e3e
00000020: 3f80 ffbc ceb2 bbbe 0ebf 12bf 2942 6abe
00000030: 815f f3be d753 cbbe 3559 eb3f 2bf0 62c0
00000040: 221e 76bf 0dd7 22c0 0d48 dd3e f669 9fbe
00000050: 965e 34b9 5698 6dbe 7529 d03c ed13 e63d
00000060: d722 fabe 963d 5bbc 763f eabb 34d3 4e3d
00000070: 65c9 563e b8b3 af3e f888 6a3e eeae b63d
00000080: 1fff 053d 3ccf fa3d 2127 5bbf 0de1 853e
00000090: 5f7f 15be 7663 3c3e 0aa8 07bd ff17 c4be
000000a0: 9f73 7abf 49dc 9abd b927 57be 0e2a 07bf
000000b0: ca95 6fbe c7c2 513f b140 943c b84b 333f
000000c0: 965e ae3e 850b 51be
0.97691315 0.11690159 0.28227347 0.16998392 -0.8509153 0.040685125 0.40517297 0.18619566
-0.031189082 -0.36659855 -0.57322776 -0.228768 -0.475338 -0.39712402 1.8386599 -3.5459087
-0.9613973 -2.5443757 0.43219033 -0.3113553 -0.00017201374 -0.23202643 0.025410393 0.11234269
-0.48854706 -0.013381382 -0.0071486784 0.050494388 0.20975263 0.34316802 0.22903812 0.08920084
0.032714006 0.12246558 -0.8560658 0.26148263 -0.1459937 0.18397316 -0.03311924 -0.38299558
-0.97832674 -0.07561547 -0.21011247 -0.52798545 -0.23396984 0.8193783 0.018097254 0.7003741
0.34056538 -0.2041455

fc.bias f4 [5]
00000000: 38dc 2fbe 5adf fcbd de93 da3e 596a 1f3f
00000010: dfe0 27bf
-0.1717385 -0.123472884 0.4269094 0.6227165 -0.655775
