rnn_based/model.pt (torch, 3351 bytes, 6 tensors)

rnn.weight_ih_l0 f4 [16, 1]
000000 27 4b 76 be d5 81 76 3e 15 8d 9a bb 73 4d 6c 3e
       -0.24052106 0.24072964 -0.0047165253 0.2307642
000010 33 83 7d be 33 38 96 be d6 fd 32 bd b3 e0 4b 3e
       -0.2475708 -0.29339752 -0.043699108 0.19909935
000020 20 f4 92 3d 44 fb 3c 3e c6 5c 05 3f 2a 06 8f be
       0.071754694 0.18455225 0.52094686 -0.2793439
000030 27 81 db bc c9 49 16 be 08 91 2b bf 23 47 04 3f
       -0.026794983 -0.14676584 -0.67018175 0.51671046

rnn.weight_hh_l0 f4 [16, 16]
000000 44 90 02 be 29 d9 09 3d 8c 5e 69 3e 29 1b 83 3e
       -0.12750345 0.033654366 0.22789973 0.2560666
000010 c1 6d 38 3e 87 63 4f bd 8d 78 80 3d b0 29 31 3e
       0.18010618 -0.050632026 0.06272993 0.17301059
000020 24 7e 25 be c3 9e 63 3e 10 83 74 3e 80 ae 5d 3d
       -0.161614 0.22228532 0.23878121 0.054121494
000030 af 7e c9 be 19 6f 47 3e 0e 63 97 3e 09 33 90 bd
       -0.39354464 0.19475974 0.2956776 -0.07040984
000040 0c 4d 2a 3e 30 ec d0 3e ba 2a a0 3e ce 28 90 3e
       0.16630954 0.40805197 0.31282598 0.28156132
000050 56 ba 7a 3e 42 3d 31 bd 07 1b 3b be ae 35 c7 3c
       0.24485144 -0.04327131 -0.18272029 0.024317589
000060 79 07 3b 3d 91 7f 98 3d e4 01 cc 3d 94 e8 85 bd
       0.045661423 0.07446206 0.09961298 -0.065385014
000070 e9 4e 2b bf d9 dc 52 ba be ad 1c 3e 8d e1 8b bc
       -0.6691728 -0.0008043773 0.15300652 -0.017075324
000080 dc c6 51 3e d6 9d 9f be 46 d8 82 3a 34 3e cf 3d
       0.20486015 -0.31175107 0.0009982667 0.10119286
000090 95 ed 9b 3e 41 b9 b3 3c 0d ee 07 bf 8b bd 00 3e
       0.30454698 0.021938922 -0.5309761 0.12572305
0000a0 46 b2 9a 3e 6b e0 89 3e 8a 9c ec bd 9b 56 cf be
       0.30214137 0.2692903 -0.11553295 -0.40495762
0000b0 34 e3 53 be d0 5b 35 3e f2 6d 82 3e c4 48 bf 3b
       -0.2069214 0.17710805 0.25474507 0.0058375318
0000c0 dc 80 a0 3e e7 67 f4 3e 0e c3 86 bd ed dd 80 3e
       0.31348312 0.4773552 -0.065801725 0.25169316
0000d0 6d 9c 02 3c 3f ef e9 39 88 4c 7f be 9f 79 dd be
       0.007971865 0.00044619475 -0.24931538 -0.43256852
0000e0 e2 e8 ee bd 1b 4a 0a 3e 41 db d8 3e a3 c1 c4 bd
       -0.116655126 0.13504831 0.42354777 -0.09607246
0000f0 a6 37 58 be 06 3a d2 bd c9 1f 85 3e 18 54 29 bd
       -0.21114978 -0.10264973 0.26000813 -0.041339964
000100 b5 15 d4 bc 72 17 f1 be a5 48 ba 3e 81 ce 87 be
       -0.025889257 -0.470882 0.36383548 -0.26524737
000110 12 3a b3 3d 6b 1d 38 bf 40 ec 16 be 07 c2 9d 3e
       0.087513104 -0.7191989 -0.1473856 0.30812094
000120 cd a9 a5 3d bc bb 6e 3e 7c fc 51 be 67 40 a4 bd
       0.080890276 0.23313802 -0.20506471 -0.08020096
000130 47 26 fb bc 85 e3 86 3e 2d bb f5 3e 6d b1 ab be
       -0.0306579 0.2634546 0.47994366 -0.33533803
000140 8c d8 7a 3e 78 ef 91 3e fe fb d2 3c f6 45 42 bd
       0.24496669 0.28503013 0.025754925 -0.04743
000150 f5 36 18 be 06 12 1d 3f 4f 48 ea 3d 0f d5 d9 3e
       -0.14864714 0.61355627 0.11439573 0.42545363
000160 31 e2 84 be 74 b0 09 be 29 a0 ee bd 18 bb f8 3d
       -0.2595382 -0.13446218 -0.11651642 0.1214506
000170 a1 3c 19 be c6 7a 61 3e f9 64 15 3e 6a 8f ae 3d
       -0.14964534 0.2201949 0.145893 0.08523448
000180 4a 1b b9 be d1 3f 8a 3d 1d 21 20 3e 39 8d 9b 3b
       -0.36153632 0.06750453 0.15637632 0.0047470597
000190 95 4d 46 be d4 89 39 3f 3f 11 4e bb 59 de 6f be
       -0.19365533 0.72475934 -0.0031443385 -0.23424663
0001a0 d1 b1 15 3e 16 39 fb 3d 86 44 21 3e 02 1a ac 3e
       0.14618613 0.12266748 0.15748796 0.33613592
0001b0 cf 9a 95 3e 5e 08 14 3e b9 d0 df bd ba df a7 3e
       0.29219672 0.14456317 -0.109284826 0.32787877
0001c0 d2 0e 17 be d2 b9 49 bf fe a9 b4 bd f8 a2 f2 be
       -0.14751747 -0.78799164 -0.08821486 -0.4738996
0001d0 2d 79 d0 3d e1 fa 1c be 12 1f 18 be 1a 39 28 3e
       0.101793624 -0.15330078 -0.14855602 0.16428033
0001e0 c8 1a c5 bd 5d 18 8f 3d b8 e6 ef bd e1 26 23 c0
       -0.09624249 0.06987069 -0.11713928 -2.549248
0001f0 d3 27 a0 3e 88 fc f4 3e eb ce 45 bf ef 01 d7 bd
       0.31280383 0.47848916 -0.77268857 -0.10498416
000200 bf 14 96 3e 42 f1 c7 be 88 d5 5d 3e ae eb 19 bb
       0.29312703 -0.39051253 0.21663487 -0.0023486423
000210 03 6e 77 3e c1 37 a7 be bd 8e 10 be d1 fd d5 bd
       0.2416306 -0.32659724 -0.1411695 -0.10448802
000220 9b e8 70 3d c2 be 80 bd 48 55 b2 bd 6f 88 20 3e
       0.05881558 -0.06286384 -0.08707672 0.15677045
000230 38 2c 8f 3e 70 18 e9 bd ed b0 ef 3d d5 a1 0c 3e
       0.27963424 -0.11381614 0.11703668 0.13733609
000240 41 21 65 3e c3 af e0 be 5a 23 c1 3e 43 f1 18 be
       0.22375967 -0.43884096 0.37722284 -0.14935784
000250 49 65 5e 3e 33 c5 d1 be f5 ae e0 be fb 23 9b 3e
       0.21718325 -0.40970764 -0.43883482 0.30300888
000260 81 c1 6e 3e f2 61 d9 3d cd 10 45 be d3 18 3a be
       0.23316003 0.10614385 -0.1924469 -0.18173532
000270 0e 28 db be 1a ae 90 3c f1 b5 9d bd ee 22 e9 3d
       -0.42803997 0.017661143 -0.07700718 0.113836154
000280 bf 05 ed bd 01 0a b8 3e d9 97 57 bd 71 c4 8d 3e
       -0.115733616 0.35945132 -0.052635048 0.27688935
000290 e1 c2 18 be ab 78 5a 3c 32 b8 e8 3d c2 7c 76 be
       -0.1491809 0.013334434 0.113632575 -0.24071029
0002a0 db cf 84 bd 8e 52 8a 3e a0 40 09 3e e5 d2 a5 3e
       -0.06484958 0.2701611 0.13403559 0.32387462
0002b0 25 96 23 be 96 80 1f 3e fd e2 d4 3c 3b 24 14 3f
       -0.15975244 0.15576395 0.025987143 0.57867783
0002c0 4f 1f ac bd b6 b9 b1 3c 00 f8 3a 3b ee 8a d2 be
       -0.08404409 0.021695 0.0028529167 -0.4112162
0002d0 50 a6 54 3d 02 11 05 3f 81 bf f8 bd de 6b 20 be
       0.05191642 0.51979077 -0.121459015 -0.15666148
0002e0 25 db 47 be f3 d8 b4 bb e4 3b 02 be 08 06 93 3e
       -0.19517191 -0.0055190264 -0.12718159 0.2871554
0002f0 0c c1 8f 3e 0d 2d 05 3e 31 b6 c2 be 87 7d 47 bd
       0.2807697 0.13005467 -0.38029626 -0.048703697
000300 f0 fd 39 be 70 1e eb be 34 0e 9d be 3e ca 26 be
       -0.18163276 -0.4592166 -0.306749 -0.16288087
000310 b8 59 13 3d 00 21 34 be b7 0a e0 3e 62 6b e5 bd
       0.035974234 -0.17590714 0.43758175 -0.11202122
000320 86 f6 df 3e 45 a3 52 bd dd 09 9e bc ab c8 e5 3d
       0.4374277 -0.051425237 -0.019291813 0.11219915
000330 5c 13 3e 3e 38 bc 12 be 40 1e ae bd 23 f8 a7 3e
       0.18562073 -0.14329612 -0.085018635 0.328065
000340 b4 a2 2a bd 35 19 f2 be df 1f d0 3e 8a f1 86 be
       -0.041659072 -0.47284856 0.40649316 -0.26356155
000350 09 ed c5 3d a6 cf ab bb 0f 7e cf 3d 93 53 ec 3e
       0.096643515 -0.0052432595 0.10131466 0.46157512
000360 c8 40 f5 3d ac 7f 5f 3e 30 25 54 be bb c7 39 bf
       0.11975247 0.21826047 -0.20717311 -0.7257039
000370 b1 7b 83 3e 71 45 0c 3f 7c ff 0e bf b2 55 a4 bc
       0.25680307 0.5479346 -0.5585859 -0.020060394
000380 6e 50 43 3e 1f bb 7c be 54 29 77 3c d9 1e e8 be
       0.1907365 -0.24680756 0.015085537 -0.45336035
000390 c0 bd 9e 3e 23 d1 ce be 45 61 0e 3e 23 06 3a 3d
       0.31004143 -0.40393934 0.13904293 0.04541601
0003a0 d5 ef 94 bd 94 e3 8a be 4b da 83 be 49 8c 50 3e
       -0.07272307 -0.27126753 -0.25752482 0.20366015
0003b0 2a 1f 14 be ce d7 82 bd 93 64 b4 3e 0a 88 0c be
       -0.14465013 -0.06388818 0.35232982 -0.1372377
0003c0 01 9d 23 bc 5c fc 93 be 1f c1 fd 3d 0e e6 8d bd
       -0.009986163 -0.28903472 0.123903506 -0.06928645
0003d0 f8 79 4c 3e ee 09 27 3f 36 18 8e bd 85 e1 fc be
       0.19968402 0.65249527 -0.069382116 -0.49390808
0003e0 d2 e6 9e 3d d2 c5 b3 3e ea e8 e3 3e e5 6e 2a 3e
       0.07758869 0.35111862 0.44513637 0.16643865
0003f0 aa 01 9e bd ce 2b 6b be 3d 1b aa be 28 e3 fd 3e
       -0.07715161 -0.22965929 -0.33223906 0.4958737

rnn.bias_ih_l0 f4 [16]
000000 e4 a1 b5 bd a5 66 e6 bd ef ef 5f be 3f 9b 52 be
       -0.08868769 -0.11250047 -0.21868871 -0.20567034
000010 c4 20 cf bd 98 02 8f be 2f 54 23 3e 24 8f 8a bd
       -0.101136714 -0.27931666 0.15950082 -0.06765583
000020 f8 ae 7b 3e 11 ad 31 3d ea b1 5f 3d 2e 0c c1 3e
       0.24578464 0.04337794 0.05461303 0.37704605
000030 ac 7e b3 3e d3 74 a7 bd fe a7 8b bd 44 41 34 3d
       0.3505758 -0.08176579 -0.06819151 0.044007555

rnn.bias_hh_l0 f4 [16]
000000 e3 68 57 3d 73 a8 af be 0b e5 bc 3d c3 aa 8a be
       0.052590262 -0.34308204 0.09223374 -0.27083406
000010 a1 80 2d bd 93 61 c4 bd 79 3f 58 3e b1 65 6c 3e
       -0.042359 -0.09588923 0.21117963 0.23085667
000020 1a 69 0d 3d 83 35 c5 3d c5 80 01 bd ae 37 93 3e
       0.03452406 0.09629347 -0.031616945 0.28753418
000030 c0 6c 05 3f 2d 8f 91 bd 28 51 e7 bd 9a cf 82 3e
       0.52119064 -0.07107387 -0.11294776 0.25549012

fc.weight f4 [5, 16]
000000 51 18 1e 3f 33 27 ba be e7 f1 e9 3e bd e9 ec 3c
       0.61755854 -0.36358032 0.4569237 0.028920049
000010 91 26 d0 3e ce cc cd 3e 60 79 19 be a1 8f 05 c0
       0.40654424 0.40195316 -0.14987707 -2.0868914
000020 1d 25 80 3f 5f 9a 4e bd 80 f8 8d 3e 9f 22 72 bc
       1.0011326 -0.05044019 0.27728653 -0.014778762
000030 4a 1d d8 bd 0f 94 fc bf b5 17 03 bd 9f 0f 71 3f
       -0.105524614 -1.9732684 -0.03200503 0.9416446
000040 aa 7d f6 bf d6 dd 08 bf 34 3a 92 bf 09 10 15 c0
       -1.92571 -0.53463495 -1.1424012 -2.3291037
000050 d9 5a 7c c0 e8 e9 10 c0 70 d6 a0 3b c2 a3 50 40
       -3.943045 -2.2642765 0.0049083754 3.259995
000060 9f 1e 81 3e a9 6b b9 be 71 31 6b c0 4e b1 2e 3e
       0.25218675 -0.3621495 -3.6748927 0.17059824
000070 39 93 14 bf 1e 81 d4 3f 14 3a cc bf cd f0 3e c0
       -0.58037144 1.6601903 -1.5955224 -2.9834473
000080 b5 8d b2 be 27 ae 94 3d 57 d8 ae 3e 6e a3 1e 3f
       -0.3487374 0.072597794 0.3414943 0.61968124
000090 4a e7 01 3f 63 fb 80 be c4 f4 f1 bd 27 39 82 bf
       0.50743544 -0.25191793 -0.118142635 -1.0173692
0000a0 2e 72 38 3e 6a d8 92 3d 2e 21 d9 3c 2c 6d 28 bf
       0.18012306 0.07170184 0.02650508 -0.65791583
0000b0 f2 49 7c 3e 50 52 07 bd e6 ba 59 be 80 fd 98 3c
       0.24637583 -0.033037484 -0.21262702 0.018675566
0000c0 f3 ef c6 3e 1a ed f5 bd 76 0c 05 3f 6f 11 2c 3e
       0.38854942 -0.12008114 0.5197214 0.16803525
0000d0 b3 08 94 3f 23 df 0e 3e a9 99 11 be 93 1b 9a bf
       1.1565155 0.13952307 -0.14218773 -1.2039665
0000e0 5d bb 56 bd e1 08 e1 bd df 93 69 3e 25 fa 97 3e
       -0.052424777 -0.10988022 0.22810315 0.29683033
0000f0 c1 37 09 3e ba 99 8f bf ba 08 29 bf 64 09 bd 3e
       0.13400175 -1.1218789 -0.6602894 0.36921227
000100 11 65 71 3e ab 34 6f 3f 39 15 c1 be 10 bf 27 3d
       0.2357371 0.9343974 -0.37711504 0.040953696
000110 1d 30 fd 3e 5e 10 7e bf ae d6 7a 3d 43 67 94 c0
       0.4945077 -0.99243724 0.06123989 -4.637605
000120 e5 b8 79 be 61 c7 cf 3e 13 4a 86 3f bf ad 19 be
       -0.24386938 0.40581802 1.0491356 -0.15007685
000130 d0 28 97 3e 67 36 42 be d6 00 f9 3f 48 d3 e2 3e
       0.29523325 -0.18966065 1.945338 0.4430182

fc.bias f4 [5]
000000 85 f7 38 bf 51 55 19 40 eb a8 b0 3e 9b 2d 80 be
       -0.72252685 2.3958323 0.34503874 -0.25034794
000010 e9 15 dd bf
       -1.7272311
